…
ecution":{"iopub.status.busy":"2024-07-31T07:53:22.870192Z","iopub.execute_input":"2024-07-31T07:53:22.870581Z","iopub.status.idle":"2024-07-31T07:53:23.433518Z","shell.execute_reply.started":"2024-07-31T07:53:22.870535Z","shell.execute_reply":"2024-07-31T07:53:23.432603Z"},"trusted":true},"execution_count":7,"outputs":[{"name":"stdout","text":"Model: \"sequential\"\n_________________________________________________________________\nLayer (type)                 Output Shape              Param #   \n=================================================================\ndense (Dense)                (None, 49152)             4915200   \n_________________________________________________________________\nreshape (Reshape)            (None, 128, 128, 3)       0         \n_________________________________________________________________\nconv2d (Conv2D)              (None, 128, 128, 128)     6144      \n_________________________________________________________________\nconv2d_1 (Conv2D)            (None, 64, 64, 128)       262144    \n_________________________________________________________________\nbatch_normalization (BatchNo (None, 64, 64, 128)       512       \n_________________________________________________________________\nleaky_re_lu (LeakyReLU)      (None, 64, 64, 128)       0         \n_________________________________________________________________\nconv2d_2 (Conv2D)            (None, 64, 64, 256)       524288    \n_________________________________________________________________\nconv2d_3 (Conv2D)            (None, 32, 32, 256)       1048576   \n_________________________________________________________________\nbatch_normalization_1 (Batch (None, 32, 32, 256)       1024      \n_________________________________________________________________\nleaky_re_lu_1 (LeakyReLU)    (None, 32, 32, 256)       0         \n_________________________________________________________________\nconv2d_transpose (Conv2DTran (None, 32, 32, 512)       2097152   \n_________________________________________________________________\nconv2d_4 (Conv2D)            (None, 16, 16, 512)       4194304   \n_________________________________________________________________\nleaky_re_lu_2 (LeakyReLU)    (None, 16, 16, 512)       0         \n_________________________________________________________________\nconv2d_transpose_1 (Conv2DTr (None, 16, 16, 512)       4194304   \n_________________________________________________________________\nconv2d_transpose_2 (Conv2DTr (None, 32, 32, 512)       4194304   \n_________________________________________________________________\nbatch_normalization_2 (Batch (None, 32, 32, 512)       2048      \n_________________________________________________________________\nleaky_re_lu_3 (LeakyReLU)    (None, 32, 32, 512)       0         \n_________________________________________________________________\nconv2d_transpose_3 (Conv2DTr (None, 32, 32, 256)       2097152   \n_________________________________________________________________\nconv2d_transpose_4 (Conv2DTr (None, 64, 64, 256)       1048576   \n_________________________________________________________________\nbatch_normalization_3 (Batch (None, 64, 64, 256)       1024      \n_________________________________________________________________\nconv2d_transpose_5 (Conv2DTr (None, 128, 128, 128)     524288    \n_________________________________________________________________\nconv2d_transpose_6 (Conv2DTr (None, 128, 128, 128)     262144    \n_________________________________________________________________\nbatch_normalization_4 (Batch (None, 128, 128, 128)     512       \n_________________________________________________________________\nconv2d_transpose_7 (Conv2DTr (None, 128, 128, 3)       6147      \n=================================================================\nTotal params: 25,379,843\nTrainable params: 25,377,283\nNon-trainable params: 2,560\n_________________________________________________________________\n","output_type":"stream"}]},{"cell_type":"markdown","source":"# Discriminator\nHere, discriminator model take 128 by 128 by 3 image that can be real or generated. This input
…
ution":{"iopub.status.busy":"2024-07-31T07:53:23.449917Z","iopub.execute_input":"2024-07-31T07:53:23.450303Z","iopub.status.idle":"2024-07-31T07:53:23.557873Z","shell.execute_reply.started":"2024-07-31T07:53:23.450273Z","shell.execute_reply":"2024-07-31T07:53:23.557052Z"},"trusted":true},"execution_count":9,"outputs":[{"name":"stdout","text":"Model: \"sequential_1\"\n_________________________________________________________________\nLayer (type)                 Output Shape              Param #   \n=================================================================\nconv2d_5 (Conv2D)            (None, 64, 64, 128)       6144      \n_________________________________________________________________\nbatch_normalization_5 (Batch (None, 64, 64, 128)       512       \n_________________________________________________________________\nleaky_re_lu_4 (LeakyReLU)    (None, 64, 64, 128)       0         \n_________________________________________________________________\nconv2d_6 (Conv2D)            (None, 32, 32, 128)       262144    \n_________________________________________________________________\nbatch_normalization_6 (Batch (None, 32, 32, 128)       512       \n_________________________________________________________________\nleaky_re_lu_5 (LeakyReLU)    (None, 32, 32, 128)       0         \n_________________________________________________________________\nconv2d_7 (Conv2D)            (None, 16, 16, 256)       524288    \n_________________________________________________________________\nbatch_normalization_7 (Batch (None, 16, 16, 256)       1024      \n_________________________________________________________________\nleaky_re_lu_6 (LeakyReLU)    (None, 16, 16, 256)       0         \n_________________________________________________________________\nconv2d_8 (Conv2D)            (None, 8, 8, 256)         1048576   \n_________________________________________________________________\nbatch_normalization_8 (Batch (None, 8, 8, 256)         1024      \n_________________________________________________________________\nleaky_re_lu_7 (LeakyReLU)    (None, 8, 8, 256)         0         \n_________________________________________________________________\nconv2d_9 (Conv2D)            (None, 4, 4, 512)         2097152   \n_________________________________________________________________\nleaky_re_lu_8 (LeakyReLU)    (None, 4, 4, 512)         0         \n_________________________________________________________________\nflatten (Flatten)            (None, 8192)              0         \n_________________________________________________________________\ndense_1 (Dense)              (None, 1)                 8193      \n=================================================================\nTotal params: 3,949,569\nTrainable params: 3,948,033\nNon-trainable params: 1,536\n_________________________________________________________________\n","output_type":"stream"}]},{"cell_type":"markdown","source":"### Let's plot image generated by generator before training","metadata":{}},{"cell_type":"code","source":"noise =
…
